Model Summary:

Model: "sequential_8"
┏━━━━━━━━━━━━━━━━━━━━━━━━━━━━━━━━━┳━━━━━━━━━━━━━━━━━━━━━━━━┳━━━━━━━━━━━━━━━┓
┃ Layer (type)                    ┃ Output Shape           ┃       Param # ┃
┡━━━━━━━━━━━━━━━━━━━━━━━━━━━━━━━━━╇━━━━━━━━━━━━━━━━━━━━━━━━╇━━━━━━━━━━━━━━━┩
│ sequential_7 (Sequential)       │ (None, 128, 128, 3)    │             0 │
├─────────────────────────────────┼────────────────────────┼───────────────┤
│ rescaling_3 (Rescaling)         │ (None, 128, 128, 3)    │             0 │
├─────────────────────────────────┼────────────────────────┼───────────────┤
│ conv2d_9 (Conv2D)               │ (None, 126, 126, 32)   │           896 │
├─────────────────────────────────┼────────────────────────┼───────────────┤
│ max_pooling2d_9 (MaxPooling2D)  │ (None, 63, 63, 32)     │             0 │
├─────────────────────────────────┼────────────────────────┼───────────────┤
│ conv2d_10 (Conv2D)              │ (None, 61, 61, 64)     │        18,496 │
├─────────────────────────────────┼────────────────────────┼───────────────┤
│ max_pooling2d_10 (MaxPooling2D) │ (None, 30, 30, 64)     │             0 │
├─────────────────────────────────┼────────────────────────┼───────────────┤
│ conv2d_11 (Conv2D)              │ (None, 28, 28, 128)    │        73,856 │
├─────────────────────────────────┼────────────────────────┼───────────────┤
│ max_pooling2d_11 (MaxPooling2D) │ (None, 14, 14, 128)    │             0 │
├─────────────────────────────────┼────────────────────────┼───────────────┤
│ flatten_3 (Flatten)             │ (None, 25088)          │             0 │
├─────────────────────────────────┼────────────────────────┼───────────────┤
│ dense_6 (Dense)                 │ (None, 256)            │     6,422,784 │
├─────────────────────────────────┼────────────────────────┼───────────────┤
│ dropout_3 (Dropout)             │ (None, 256)            │             0 │
├─────────────────────────────────┼────────────────────────┼───────────────┤
│ dense_7 (Dense)                 │ (None, 62)             │        15,934 │
└─────────────────────────────────┴────────────────────────┴───────────────┘
 Total params: 19,595,900 (74.75 MB)
 Trainable params: 6,531,966 (24.92 MB)
 Non-trainable params: 0 (0.00 B)
 Optimizer params: 13,063,934 (49.83 MB)
19/19 ━━━━━━━━━━━━━━━━━━━━ 8s 402ms/step - accuracy: 0.6589 - loss: 1.2862
Final Accuracy: 0.6589403748512268
Best Validation Accuracy: 0.6589403748512268
1/1 ━━━━━━━━━━━━━━━━━━━━ 0s 436ms/step
…
